models/mf_models/model_file.npz (npz, 117163 bytes, 4 tensors)

user_factors f4 [3835, 4]
000000 ea cb 80 ad 08 67 54 ad 8b ea 03 2f d6 db 67 ae
       -1.4642471e-11 -1.2073682e-11 1.1997707e-10 -5.2718573e-11
000010 bd bf 31 2c 04 2c ec ac 89 f7 54 ad 1b cf 9b ad
       2.525965e-12 -6.71241e-12 -1.2105769e-11 -1.7713433e-11
000020 5a be bd ad 67 68 09 ae 46 e8 34 2e 61 81 dc ad
       -2.1571345e-11 -3.124292e-11 4.1133562e-11 -2.506856e-11
000030 86 54 c3 ac bc b6 c1 ad eb 44 1f 2f 25 68 87 ae
       -5.5516173e-12 -2.202271e-11 1.448545e-10 -6.157589e-11
000040 a8 49 b3 be cc ab 80 3e 7e 28 09 3f 19 2e 16 be
       -0.35017133 0.2513107 0.5357741 -0.14666022
000050 55 42 14 2e bf 6f 98 ae f6 2c 00 2f 41 84 45 ae
       3.371022e-11 -6.93201e-11 1.1657506e-10 -4.491008e-11
000060 2f 8d 14 af f6 c2 96 ae 6f 08 cc 2e 2b 42 0f 2f
       -1.351068e-10 -6.855842e-11 9.278344e-11 1.3029282e-10
000070 db 82 93 3d 40 3d 0c bf cd a5 10 3d 21 81 a6 3e
       0.07202693 -0.5478096 0.03531437 0.32520393
000080 72 f5 a5 32 3e 00 c5 b3 91 04 be 33 70 c1 a2 32
       1.9320144e-08 -9.1735714e-08 8.848395e-08 1.8947247e-08
000090 53 1c 73 3e 6b 70 92 3e 08 7d b5 bd 40 ed 1f 3f
       0.23741274 0.28601393 -0.088617384 0.6247139
0000a0 e9 06 1d 2e 7f f6 a7 2b 09 43 f9 2d 5b 86 a5 ae
       3.5703804e-11 1.193448e-12 2.8337792e-11 -7.5271976e-11
0000b0 07 55 b2 2e 33 d3 1e 2e 1a 9c b0 ad dc 52 a0 ae
       8.109607e-11 3.6112623e-11 -2.0078206e-11 -7.2906764e-11
0000c0 d2 56 73 3e 86 33 93 3e d4 06 ba bd 20 1b 20 3f
       0.23763588 0.28750247 -0.090833336 0.6254139
0000d0 f1 aa 9e 3c 53 f7 47 3c 03 ca f5 bc 7f 3e 5a 3b
       0.01936862 0.012204963 -0.030003553 0.003330141
0000e0 b8 24 c3 ae 72 4f 0f ae d8 4a 3c 2f 00 f3 e6 ad
       -8.874096e-11 -3.2584997e-11 1.712509e-10 -2.6255886e-11
0000f0 3c a4 e8 2d c6 5a 1a 2f 4b 9b da ad e8 6f b5 ae
       2.6448281e-11 1.4038468e-10 -2.4852695e-11 -8.2508056e-11
000100 49 d1 28 3d b0 50 04 bf 82 a2 af 3e 97 12 56 3e
       0.041215215 -0.5168562 0.3430367 0.20905529
000110 95 55 3d ae 94 08 a1 2d f9 7d 4c 2e 0f 8a 03 ad
       -4.3049637e-11 1.830739e-11 4.6496116e-11 -7.477143e-12
000120 33 4e 15 2f ed 6d a7 ad 10 81 ba 2b d2 ce e4 ae
       1.3579253e-10 -1.9034519e-11 1.3251917e-12 -1.0404978e-10
000130 8c 14 59 2e e2 34 bc 2e c0 07 c7 2d 15 bd 0c af
       4.9358337e-11 8.558644e-11 2.2627122e-11 -1.2800101e-10
000140 da 56 73 3e 82 33 93 3e d6 06 ba bd 1f 1b 20 3f
       0.237636 0.28750235 -0.09083335 0.62541384
000150 a1 aa 45 ae 84 7a 95 2d 58 cd 5d 2e 3d 45 fa ac
       -4.4944163e-11 1.6993747e-11 5.0431964e-11 -7.1131144e-12
000160 4e d5 1e 2f d3 8f d3 ac 25 99 31 ad 4e 17 09 af
       1.4445797e-10 -6.0129484e-12 -1.009529e-11 -1.2468357e-10
000170 4c 25 61 bf d0 2d 46 be 26 0c 15 3f 1d 04 00 3f
       -0.87947536 -0.19353414 0.5822166 0.50006276
000180 ca 2c 73 3e e4 28 93 3e 8c 46 ba bd 22 02 20 3f
       0.23747554 0.28742135 -0.09095487 0.62503254
000190 27 f7 72 3e 5a 34 92 3e ca 58 b4 bd 61 d3 1f 3f
       0.23727094 0.28555566 -0.08805998 0.62431914
0001a0 f0 17 5b 2e 4a 58 0c 2e df f8 e9 2e b5 56 1a af
       4.9816096e-11 3.191073e-11 1.0639822e-10 -1.4037023e-10
0001b0 5e 35 8e ad 62 a3 5d ae 63 7e 11 2f 64 96 09 ae
       -1.616723e-11 -5.0394695e-11 1.3232575e-10 -3.1283767e-11
0001c0 a5 c0 14 ae dd 30 f2 ad 17 7d 22 2e c5 b3 29 ad
       -3.3822407e-11 -2.7533914e-11 3.6945638e-11 -9.646455e-12
0001d0 0f 1b 36 2e 48 1b 95 2d 1e 5e d5 2e 3b 14 8b ae
       4.1406042e-11 1.6951454e-11 9.702837e-11 -6.324582e-11
0001e0 b6 89 30 ae f6 cf 15 ad d5 28 85 2d 47 f8 70 2e
       -4.014008e-11 -8.515846e-12 1.5138482e-11 5.4790197e-11
0001f0 db 56 73 3e 83 33 93 3e d9 06 ba bd 20 1b 20 3f
       0.23763601 0.28750238 -0.09083337 0.6254139
000200 65 56 7c ae 30 e8 19 ae e7 5e f0 2e 8b 5d 9e 2d
       -5.73749e-11 -3.4994396e-11 1.09307945e-10 1.8004062e-11
000210 7d f2 b0 b5 7a 08 1c 35 5e 97 b8 35 3e 1a 73 b3
       -1.3183595e-06 5.8126864e-07 1.3753122e-06 -5.6601714e-08
000220 2a f7 72 3e 5a 34 92 3e c7 58 b4 bd 62 d3 1f 3f
       0.23727098 0.28555566 -0.088059954 0.6243192
000230 d7 56 73 3e 84 33 93 3e d4 06 ba bd 1f 1b 20 3f
       0.23763596 0.2875024 -0.090833336 0.62541384
000240 52 6c 79 ae 67 d7 45 ae d4 7f f9 2e 76 d8 eb ad
       -5.6712253e-11 -4.498393e-11 1.1345916e-10 -2.6812535e-11
000250 6d 3a 96 2d 66 2d 6f 2b 6e 28 8c ad dc 72 07 ae
       1.7078972e-11 8.497286e-13 -1.5934112e-11 -3.0797462e-11
000260 02 f2 a5 ae af 93 2e ae 65 22 0b 2f bc e2 63 2e
       -7.5463205e-11 -3.969419e-11 1.2654196e-10 5.1815205e-11
000270 cf b1 e7 3e 09 d1 90 be 65 06 9c 3e 61 4c 58 be
       0.45252845 -0.2828448 0.3047363 -0.21122886
000280 67 2f 34 ae e3 d2 e3 ad ad 62 46 2e a5 5d e7 2c
       -4.0969363e-11 -2.5900565e-11 4.510763e-11 6.5758115e-12
000290 55 a1 fd 3d ba 4f 45 3e 78 50 e8 3e b2 88 c5 be
       0.12384287 0.19268695 0.45373893 -0.38580853
0002a0 d7 56 73 3e 85 33 93 3e d7 06 ba bd 20 1b 20 3f
       0.23763596 0.28750244 -0.09083336 0.6254139
0002b0 8c bd 10 3e e6 2e 02 bf b5 05 ba 3e 20 12 05 3e
       0.14134806 -0.5085281 0.3633248 0.12995195
0002c0 cc 2c 73 3e df 28 93 3e 8e 46 ba bd 22 02 20 3f
       0.23747557 0.2874212 -0.090954885 0.62503254
0002d0 b8 ec 17 ad 1f f2 af ad 0e 1b fb 2e b6 62 fd ad
       -8.635918e-12 -2.000272e-11 1.14189644e-10 -2.8806606e-11
0002e0 29 f7 72 3e 5a 34 92 3e cb 58 b4 bd 61 d3 1f 3f
       0.23727097 0.28555566 -0.088059984 0.62431914
0002f0 c5 17 2b 3b a9 24 9c 3b 48 a3 78 bb 77 dd e6 3b
       0.0026106697 0.0047651124 -0.003793912 0.0070454436
000300 e0 37 73 3e a6 af 92 3e 8b d8 b6 bd 52 01 20 3f
       0.23751783 0.28649634 -0.08928021 0.62502015
000310 06 55 9e 33 f2 ce 67 b2 19 49 4e b3 6b 26 b4 b2
       7.372914e-08 -1.3493024e-08 -4.8029595e-08 -2.0972228e-08
000320 e0 37 73 3e a8 af 92 3e 8a d8 b6 bd 51 01 20 3f
       0.23751783 0.2864964 -0.0892802 0.6250201
000330 d0 f6 11 2e 1f 4e 5d 2d 11 50 56 2e 20 96 02 ae
       3.3188396e-11 1.2579742e-11 4.872908e-11 -2.9691916e-11
000340 d9 86 91 30 7c fe 22 b3 df 8c 0a 34 6d 37 bd b2
       1.0588465e-09 -3.7950016e-08 1.29035e-07 -2.20277e-08
000350 d9 52 a5 2d 59 e1 e8 2c 99 96 d5 ac 13 1e 83 ad
       1.879512e-11 6.618855e-12 -6.070544e-12 -1.4906331e-11
000360 0c 7b 81 ae a8 5c 5a ae 07 86 1a 2f b8 b1 a3 ad
       -5.888098e-11 -4.9649757e-11 1.4053834e-10 -1.8609878e-11
000370 52 a1 fd 3d ba 4f 45 3e 79 50 e8 3e b2 88 c5 be
       0.12384285 0.19268695 0.45373896 -0.38580853
000380 f8 90 0c 2e 3b 34 8e 2d 61 33 18 2f 36 04 0f af
       3.1961073e-11 1.6166726e-11 1.3842573e-10 -1.300727e-10
000390 8d bd 10 3e e6 2e 02 bf b5 05 ba 3e 21 12 05 3e
       0.14134808 -0.5085281 0.3633248 0.12995197
0003a0 53 b0 24 ae c5 86 0f ae 5f 8d f4 2e 3a cf 16 2c
       -3.744589e-11 -3.2634135e-11 1.1120948e-10 2.1431316e-12
0003b0 e7 08 d3 2e 02 c1 b1 ac b3 9c 63 2e 92 9a e9 ae
       9.5967505e-11 -5.0520707e-12 5.1753e-11 -1.06230705e-10
0003c0 de 37 73 3e a6 af 92 3e 8c d8 b6 bd 53 01 20 3f
       0.2375178 0.28649634 -0.08928022 0.6250202
0003d0 ac 46 2d ae 70 16 99 ad f3 7b 06 2f 92 d7 08 2d
       -3.9398415e-11 -1.740405e-11 1.2231265e-10 7.778571e-12
0003e0 00 b7 9a ad 3f d1 46 ae 4d 96 40 2f 4d b0 95 ae
       -1.7589041e-11 -4.5205836e-11 1.7515696e-10 -6.807053e-11
0003f0 0e b6 6b ae 61 50 1e ae 15 b9 b0 2e 06 e7 57 ad
       -5.359451e-11 -3.599643e-11 8.0364305e-11 -1.22726326e-11

item_factors f4 [3292, 4]
000000 96 6b 27 2d 27 90 0c 2d 07 23 eb 2c 81 ed e0 ac
       9.51674e-12 7.990087e-12 6.6829905e-12 -6.392831e-12
000010 ad 11 f9 3a 8c fd 0f 3b cb e3 58 3a 52 31 3f 3b
       0.001900246 0.0021971194 0.000827369 0.0029173684
000020 a0 11 f9 3a b5 fd 0f 3b c7 e3 58 3a 41 31 3f 3b
       0.0019002445 0.002197129 0.00082736876 0.0029173645
000030 2b 04 de 26 16 a6 8c ab 15 6a 92 2d 3a 14 49 2c
       1.5405474e-15 -9.993696e-13 1.6645388e-11 2.8575046e-12
000040 5f f0 31 ac d5 42 ce ab a2 38 0f 2d d2 cf 29 2c
       -2.5286646e-12 -1.465573e-12 8.141184e-12 2.4131708e-12
000050 59 c0 92 2a 06 99 b2 2a 6b 06 a6 a9 0b b2 48 aa
       2.6068278e-13 3.1725333e-13 -7.372994e-14 -1.782534e-13
000060 08 a4 65 ad 40 fa 0e ad 4c d3 84 ad 7e 88 f4 2c
       -1.3053565e-11 -8.127332e-12 -1.5100497e-11 6.9500508e-12
000070 af 7e a6 2c 97 50 44 2c 18 bd b9 2c 40 8e 1f ac
       4.7320685e-12 2.7898012e-12 5.27901e-12 -2.2674224e-12
000080 8c 53 19 3b 1e d4 37 3b 90 40 61 3a fe 84 6c 3b
       0.0023395745 0.0028050016 0.00085926894 0.0036090012
000090 8d 53 19 3b 1e d4 37 3b 6b 40 61 3a fd 84 6c 3b
       0.0023395747 0.0028050016 0.0008592668 0.003609001
0000a0 19 28 a3 3d 22 c7 11 3d 13 29 d2 3e fb 47 26 3c
       0.079666324 0.0355903 0.41046962 0.010148997
0000b0 e3 fa fb 39 19 eb 0d 3a 85 83 73 39 9a d1 40 3a
       0.00048061376 0.00054137554 0.00023223281 0.0007355452
0000c0 9a fc bb 3a 1d 1d d6 3a 6a 16 2e 3a b2 09 10 3b
       0.0014342249 0.0016335581 0.0006640913 0.0021978435
0000d0 45 a8 ab 2c 7c 8a 43 2c 76 9f b7 2c f7 d3 22 ac
       4.878794e-12 2.778804e-12 5.2188765e-12 -2.3139249e-12
0000e0 c6 95 f3 2c d2 b5 69 2c 04 10 81 ab 90 ea 97 ac
       6.9231036e-12 3.3212222e-12 -9.170447e-13 -4.31772e-12
0000f0 3a 1c ab 2c 5f 22 89 2d 99 b8 e4 2c 8d 8c 12 ad
       4.863246e-12 1.559036e-11 6.500644e-12 -8.330348e-12
000100 be 60 33 2a ee 72 8f 29 50 8a b9 aa 26 19 0c aa
       1.5931958e-13 6.370413e-14 -3.2958575e-13 -1.2443223e-13
000110 d3 f3 b1 2b 7e 8f a2 2b 15 09 4d 2d b3 a2 38 2b
       1.2644281e-12 1.1550619e-12 1.16549175e-11 6.559572e-13
000120 67 45 ec 2c b1 79 7c 2c e2 1c 91 2c a6 69 85 ac
       6.7152286e-12 3.5878906e-12 4.1243545e-12 -3.7918167e-12
000130 93 11 f9 3a 9f fd 0f 3b c9 e3 58 3a 4e 31 3f 3b
       0.001900243 0.0021971238 0.0008273689 0.0029173675
000140 96 a7 8f 2a d4 20 b3 2a 38 ac ba a9 6b 96 4c aa
       2.551819e-13 3.1819567e-13 -8.2899345e-14 -1.8171026e-13
000150 13 b1 5a 2a f1 87 ac 2a 71 f6 e9 2c a9 47 21 2b
       1.9423725e-13 3.0647666e-13 6.649619e-12 5.729814e-13
000160 b4 fc bb 3a 2b 1d d6 3a 98 16 2e 3a ab 09 10 3b
       0.0014342279 0.0016335597 0.000664094 0.0021978419
000170 02 18 cf ac 25 7a 3f ac 43 79 a1 2d c2 54 d6 2c
       -5.8859593e-12 -2.7210536e-12 1.8357432e-11 6.091656e-12
000180 24 79 8f aa 18 a9 b6 aa 12 e9 ca 29 d9 51 52 2a
       -2.548596e-13 -3.2447027e-13 9.011033e-14 1.8680143e-13
000190 50 42 13 2c fa 02 c2 2b 6c 4f ef 2c df 1f 34 ab
       2.0926767e-12 1.3785355e-12 6.801606e-12 -6.3993076e-13
0001a0 da fa fb 39 15 eb 0d 3a 85 83 73 39 9f d1 40 3a
       0.0004806135 0.0005413753 0.00023223281 0.0007355455
0001b0 76 f9 21 2a 12 d6 77 2a ae 60 d9 2a ba 83 c9 28
       1.4386222e-13 2.2012278e-13 3.8614028e-13 2.237261e-14
0001c0 f1 0f e0 ab 97 1c 1f 2c 40 a2 a4 2d 87 49 1e 2c
       -1.5920582e-12 2.261113e-12 1.8716695e-11 2.2493966e-12
0001d0 94 64 8f ac 22 d7 2a ac b9 a1 44 ab c6 0a 43 2c
       -4.075471e-12 -2.4277876e-12 -6.9857623e-13 2.7717147e-12
0001e0 47 f7 69 2d 64 9f d6 2c 8b 7b 7c 2b e1 8d 04 ad
       1.3299423e-11 6.0999417e-12 8.9699835e-13 -7.534835e-12
0001f0 45 33 6f bc 97 b8 9b 3d 5f 9c fa 3d 20 07 48 bc
       -0.014599626 0.07603567 0.12236857 -0.01220873
000200 d9 8c f0 3a ab ce 1a 3b 29 83 db 39 aa 88 3b 3b
       0.0018352523 0.002362172 0.00041868657 0.0028615394
000210 c6 53 19 3b 55 d4 37 3b a0 40 61 3a d1 84 6c 3b
       0.002339588 0.0028050144 0.0008592699 0.0036089907
000220 42 77 2d 2d 70 cd 5a 2d f7 ef 86 2d 2c 13 07 ad
       9.860392e-12 1.2437482e-11 1.5340602e-11 -7.6781186e-12
000230 9f 53 19 3b 2a d4 37 3b 6b 40 61 3a f3 84 6c 3b
       0.002339579 0.0028050044 0.0008592668 0.0036089986
000240 75 16 b1 2c c0 84 1e 2d 7c 11 2e 2d 76 a0 a4 ac
       5.033136e-12 9.010737e-12 9.894637e-12 -4.678975e-12
000250 8a 53 19 3b 17 d4 37 3b 70 40 61 3a 00 85 6c 3b
       0.002339574 0.002805 0.0008592671 0.0036090016
000260 c7 11 f9 3a a9 fd 0f 3b e4 e3 58 3a 40 31 3f 3b
       0.001900249 0.0021971262 0.00082737044 0.0029173642
000270 42 01 17 ab 95 6a 0b 2c d0 c9 a1 2d 16 90 e7 2b
       -5.364772e-13 1.9812253e-12 1.8393204e-11 1.6453529e-12
000280 11 6b cc ab 92 0e c6 2b 75 4b ac 2d ee 41 2a 2c
       -1.4524789e-12 1.407279e-12 1.9587646e-11 2.4195051e-12
000290 e7 fa fb 39 0c eb 0d 3a 72 83 73 39 9c d1 40 3a
       0.00048061387 0.0005413748 0.00023223253 0.0007355453
0002a0 98 53 19 3b 0b d4 37 3b 26 40 61 3a 02 85 6c 3b
       0.0023395773 0.0028049971 0.0008592628 0.003609002
0002b0 29 ac 2c ac b9 bb 9d ab be 77 86 2c 45 78 09 2c
       -2.4538238e-12 -1.1207624e-12 3.821803e-12 1.9535634e-12
0002c0 95 7d 7b 3a 67 28 8e 3a c7 ba ef 39 67 86 c0 3a
       0.00095936033 0.0010845781 0.00045724792 0.0014688493
0002d0 2d c1 2e 2b b6 22 60 2a 54 84 57 2c 35 df 14 29
       6.2085303e-13 1.990724e-13 3.0626795e-12 3.3056203e-14
0002e0 c3 84 89 2c 7a b4 30 2c 2c cd 7e 2c 3a ea 15 ac
       3.9085137e-12 2.511129e-12 3.6209464e-12 -2.1304195e-12
0002f0 c2 53 19 3b 56 d4 37 3b 7b 40 61 3a ce 84 6c 3b
       0.002339587 0.0028050146 0.0008592677 0.00360899
000300 f8 9a 7b 3a 8f 0d 8f 3a 83 81 ea 39 f6 be c0 3a
       0.0009597982 0.0010914075 0.00044728452 0.0014705348
000310 30 f2 10 2d 6f a6 a9 2c 6f d1 49 2d 60 eb 8a ac
       8.239229e-12 4.8217467e-12 1.1472031e-11 -3.9483278e-12
000320 84 dc 5a 2b 66 06 1a 2c 1f a3 8a 2d a9 16 98 2b
       7.7755185e-13 2.1888268e-12 1.5761224e-11 1.0806539e-12
000330 ca f6 72 ad 37 e8 6d ac cc 05 8a ac 77 9a e3 2c
       -1.38109055e-11 -3.380863e-12 -3.9228395e-12 6.468877e-12
000340 1f 2a 11 2a 25 fd 39 2a 65 80 5c a9 db fc d8 a9
       1.2893201e-13 1.6519128e-13 -4.8961178e-14 -9.6361904e-14
000350 57 4c d3 ab 2b b4 3a ac bc cf 81 2d 00 1d 82 2c
       -1.501364e-12 -2.6532203e-12 1.4757855e-11 3.698042e-12
000360 3c 9c 2c 2d f6 ae 7e 2d cc 46 ec 2c fe 64 2a ad
       9.811759e-12 1.44770775e-11 6.7153835e-12 -9.685806e-12
000370 a3 3b 3b 2c f2 ad b0 2b 1a ac 3e 2c 7f d2 bc ab
       2.6607403e-12 1.2553832e-12 2.709616e-12 -1.3416628e-12
000380 3c 95 37 2d 12 55 a9 2c 3c f8 cf ac 2c 4b f5 ac
       1.0435482e-11 4.8127136e-12 -5.9108534e-12 -6.9716646e-12
000390 85 53 19 3b 28 d4 37 3b 37 40 61 3a f9 84 6c 3b
       0.0023395729 0.002805004 0.00085926376 0.003609
0003a0 e3 41 13 2d 07 8b 97 2c ff b9 60 ac 0c 0f c2 ac
       8.370612e-12 4.3071133e-12 -3.1935563e-12 -5.515482e-12
0003b0 b4 be 8f ac ee 6b 29 2c 69 7e 98 2d 87 dc 36 2c
       -4.0854767e-12 2.4076257e-12 1.7336537e-11 2.5986173e-12
0003c0 ee b1 d7 2a 2f d5 4a 2a f8 a9 2d 29 5e e7 dd a9
       3.8315136e-13 1.8015167e-13 3.856114e-14 -9.8545073e-14
0003d0 d1 01 18 2d fe a1 99 2c b0 49 4f ab 8e 16 bc ac
       8.640603e-12 4.3665063e-12 -7.3643435e-13 -5.3457854e-12
0003e0 56 ac 00 ad ac 4d 7a ac 2d a5 85 2d 17 02 e0 2c
       -7.314224e-12 -3.5570253e-12 1.5193702e-11 6.366695e-12
0003f0 fb 03 56 2d 4d ef b0 2c c3 31 00 ac 6f 6d f6 ac
       1.21653755e-11 5.0287886e-12 -1.8217517e-12 -7.00389e-12

regularization f8 []
000000 7b 14 ae 47 e1 7a 84 3f
       0.01

alpha f8 []
000000 00 00 00 00 00 00 f0 3f
       1.0
