models/mf_models/model_file.joblib.npz (npz, 345227 bytes, 4 tensors)

user_factors f4 [3835, 12]
2.4313465e-05 1.514947e-05 -1.2436536e-05 -2.978557e-06 -6.265163e-06 -8.6705455e-07 -1.0190006e-05 -1.363746e-06
6.5856266e-06 8.18232e-06 8.411922e-06 1.8937586e-05 5.353622e-12 2.9722926e-11 1.0988078e-11 -5.393236e-11
7.445559e-12 -4.9924377e-11 -2.1452111e-11 -7.2632265e-12 1.4854513e-11 5.452063e-11 3.2645334e-11 2.085311e-11
4.9071207e-12 1.9273623e-11 -1.1972752e-12 -6.034981e-11 -4.2020293e-12 -8.308938e-11 -1.8912144e-11 -3.3191654e-11
-3.982289e-12 5.4879875e-11 1.6315239e-11 1.3561405e-11 2.6468235e-05 1.5734247e-05 -7.547662e-06 -9.650027e-06
3.312469e-06 -2.3889172e-05 -9.391785e-06 -5.3211647e-06 1.5189033e-05 3.4440014e-05 2.8345574e-05 1.8997373e-05
-0.3510907 -0.29538506 0.3069795 0.41853532 -0.49251187 -0.12530641 0.0772717 0.16906974
-0.3048404 0.77743125 -0.038708612 0.08381791 2.1191361e-05 3.7341754e-06 -1.4419308e-05 -2.6802047e-06
-8.810851e-06 5.490351e-06 -4.0399004e-06 5.6204516e-07 5.772646e-06 1.0755428e-05 1.0276541e-05 1.8189674e-05
2.7320135e-05 1.5018352e-05 -8.032053e-06 -1.0209962e-05 8.349631e-06 -1.982119e-05 -9.5253645e-06 -7.097069e-06
1.3838884e-05 2.162385e-05 2.3628869e-05 1.4569333e-05 0.35946062 -0.35250717 0.43162137 0.5206397
-0.18914294 -0.009855167 -0.1808428 -0.44854036 0.29633927 0.07462517 0.27785167 -0.38391706
0.03934016 0.12275047 0.039863497 -0.07181948 -0.10258295 0.111629434 -0.10592804 -0.13199866
0.14147744 0.16736408 0.18400979 -0.01508431 -0.083767086 0.1713742 0.52379996 0.25980216
0.4807476 0.4313982 0.3338076 0.37050012 -0.07039197 -0.17620488 -0.13619795 -0.013803929
5.5671384e-11 -8.9452404e-13 -7.429726e-11 1.5982268e-12 -8.395717e-11 -3.8533125e-11 -1.7247427e-11 -3.6438054e-11
7.554892e-11 6.667349e-11 7.0857216e-11 4.4150072e-11 2.5062369e-11 2.9288662e-13 -3.117347e-11 4.496844e-12
-3.8179942e-11 -1.5354933e-11 -3.5700093e-12 -1.4779554e-11 3.8773058e-11 3.1704986e-11 3.4545592e-11 2.0324457e-11
-0.08825145 0.16993114 0.524272 0.25985032 0.4814059 0.43773985 0.3370244 0.36955383
-0.07364277 -0.17952159 -0.13916491 -0.017130537 -0.33632666 -0.42772534 0.3096997 0.054863334
0.40070328 -0.15881558 -0.08894054 -0.24747117 0.37810862 0.35125828 0.13915376 -0.3374343
2.2731656e-05 8.073529e-06 -4.2543024e-06 -4.8161055e-06 -4.7757194e-06 -1.4309286e-05 -4.64777e-06 -7.2884623e-06
1.140397e-05 3.196638e-05 2.1542e-05 1.8308137e-05 1.0265148e-05 5.607566e-06 -1.4489805e-05 7.044354e-06
1.5447599e-06 -8.059308e-06 -5.78127e-06 5.375963e-06 5.966829e-06 2.8190475e-06 2.6062123e-06 1.4226091e-05
0.75172424 -0.1497163 0.11341003 -0.20877253 0.21518965 -0.1350177 0.3249981 -0.55624914
-0.31537235 0.05623873 0.008360724 0.20121126 2.9868125e-11 1.4571386e-12 -4.0464862e-13 -9.381588e-12
1.9614168e-11 -4.6748345e-11 -9.6606915e-12 -2.2364248e-11 -1.0617437e-11 4.524266e-11 2.4810536e-11 1.2564633e-11
2.3869068e-05 1.5433565e-05 -5.3767358e-06 -1.0972564e-05 4.455752e-06 -1.967385e-05 -9.90391e-06 -7.1136737e-06
7.072893e-06 2.9514744e-05 2.4859963e-05 2.1514825e-05 3.7340235e-06 -2.8661702e-06 -2.15459e-06 4.067864e-06
-7.2578628e-06 -1.1603671e-05 5.032811e-06 -5.0685308e-06 2.1246711e-05 1.8473434e-05 2.1822394e-05 5.161595e-06
-0.088252224 0.16994141 0.5242815 0.2598379 0.48142177 0.43772087 0.33702278 0.36954793
-0.07365149 -0.17950654 -0.13916875 -0.017127538 -9.011694e-12 -1.1723721e-12 -2.8820954e-12 -2.4392963e-11
00000000: c5f4 cb37 7a2a 7e37 84a6 50b7 38e3 47b6
00000010: 5739 d2b6 89bf 68b5 bef5 2ab7 f509 b7b5
00000020: 1afa dc36 cc46 0937 ee20 0d37 28dc 9e37
00000030: 245d bc2c 0ab9 022e e74d 412d 7032 6dae
00000040: d1fb 022d da91 5bae dcb1 bcad 548d ffac
00000050: 64a9 822d c6c8 6f2e 6193 0f2e 076d b72d
00000060: 6aa7 ac2c 5788 a92d 6380 a8ab ecb5 84ae
00000070: 84d8 93ac 2ab7 b6ae 5d5a a6ad 7bfa 11ae
00000080: 451d 8cac 3f5d 712e a782 8f2d 2393 6e2d
00000090: 1a08 de37 0afd 8337 ec41 fdb6 8de6 21b7
000000a0: c94b 5e36 9b65 c8b7 6991 1db7 758c b2b6
000000b0: 66d4 7e37 af73 1038 a8c7 ed37 8c5c 9f37
000000c0: 29c2 b3be b63c 97be 6b2c 9d3e 434a d63e
000000d0: 842a fcbe 5350 00be a040 9e3d 9e20 2d3e
000000e0: 0a14 9cbe bc05 473f ec8c 1ebd b9a8 ab3d
000000f0: 1ac4 b137 a598 7a36 75ea 71b7 91dd 33b6
00000100: 51d2 13b7 c239 b836 7b8e 87b6 73df 1635
00000110: a7b2 c136 3672 3437 6869 2c37 0796 9837
00000120: 8b2d e537 55f7 7b37 68c1 06b7 744b 2bb7
00000130: 6415 0c37 ae45 a6b7 21cf 1fb7 5c23 eeb6
00000140: 8e2d 6837 dd64 b537 9c36 c637 cf6e 7437
00000150: 390b b83e d27b b4be 7afd dc3e a548 053f
00000160: b0ae 41be 9177 21bc db2e 39be 15a7 e5be
00000170: c8b9 973e 15d5 983d 9342 8e3e c790 c4be
00000180: 2623 213d 9964 fb3d e847 233d 1716 93bd
00000190: 0217 d2bd f99d e43d cdf0 d8bd a82a 07be
000001a0: 76df 103e 7d61 2b3e 106d 3c3e 2f24 77bc
000001b0: 148e abbd b87c 2f3e c117 063f ca04 853e
000001c0: 8d24 f63e 3ae0 dc3e d4e8 aa3e 31b2 bd3e
000001d0: aa29 90bd 0d6f 34be 7a77 0bbe e029 62bc
000001e0: 68d8 742e 40c9 7bab a461 a3ae 30ee e02b
000001f0: af9f b8ae 7178 29ae c1b5 97ad 9a41 20ae
00000200: 4322 a62e d79d 922e 11d1 9b2e 902c 422e
00000210: 7073 dc2d 69e1 a42a 351a 09ae f837 9e2c
00000220: cbea 27ae 3c10 87ad 9237 7bac 9900 82ad
00000230: 9586 2a2e a470 0b2e e1ee 172e 9cc6 b22d
00000240: 2dbd b4bd 6e02 2e3e b136 063f 1a0b 853e
00000250: d67a f63e 701f e03e 768e ac3e 2936 bd3e
00000260: 05d2 96bd 82d4 37be 3f81 0ebe 5755 8cbc
00000270: 0233 acbe d1fe dabe f690 9e3e 60b8 603d
00000280: fb28 cd3e 8da0 22be 7526 b6bd 1569 7dbe
00000290: 7497 c13e 20d8 b33e 537e 0e3e 30c4 acbe
000002a0: dcaf be37 8b73 0737 2ec0 8eb6 089a a1b6
000002b0: 1e3f a0b6 ea11 70b7 0af4 9bb6 6a8f f4b6
000002c0: ae53 3f37 a413 0638 18b5 b437 6d94 9937
000002d0: 7a38 2c37 a028 bc36 3d19 73b7 8a5e ec36
000002e0: 8c55 cf35 7736 07b7 bbfc c1b6 2c63 b436
000002f0: ac36 c836 de2e 3d36 63e6 2e36 98ac 6e37
00000300: 0071 403f 3b4f 19be 8543 e83d 77c8 55be
00000310: ad5a 5c3e 1442 0abe 2766 a63e 5866 0ebf
00000320: 7c78 a1be 955a 663d 6bfb 083c 530a 4e3e
00000330: 855c 032e f312 cd2b 03cc e3aa eb0a 25ad
00000340: 2e87 ac2d f599 4dae e3f3 29ad cfb7 c4ad
00000350: afc8 3aad b5fa 462e 5c3c da2d 140a 5d2d
00000360: 6f3a c837 5477 8137 cf69 b4b6 ce16 38b7
00000370: 9e82 9536 4509 a5b7 f828 26b7 feb1 eeb6
00000380: b053 ed36 6e96 f737 5d8a d037 bc7a b437
00000390: 0996 7a36 6e58 40b6 9397 10b6 b07e 8836
000003a0: 9188 f3b6 63ad 42b7 84df a836 5912 aab6
000003b0: f73a b237 66f7 9a37 3c0f b737 c331 ad36
000003c0: 95bd b4bd 1f05 2e3e 5037 063f 7909 853e
000003d0: ea7c f63e f31c e03e 408e ac3e 6335 bd3e
000003e0: 98d6 96bd 90d0 37be 4182 0ebe 0d4f 8cbc
000003f0: 1089 1ead 28ff a4ab 37cf 4aac 1290 d6ad

item_factors f4 [3292, 12]
3.37873e-06 2.0448815e-06 -3.285976e-07 3.1235816e-06 -1.3678622e-06 5.6665544e-07 1.3505403e-06 1.538319e-06
2.6820462e-06 3.6978545e-06 3.269652e-06 3.2957041e-06 0.000103877996 0.000667437 0.0012651616 0.0008058291
0.0011972623 0.0013680721 0.0011073577 0.0009354384 0.00016806844 1.0920236e-05 8.614655e-05 0.00029456156
0.00010387803 0.00066743576 0.0012651657 0.00080582686 0.0011972628 0.0013680782 0.0011073527 0.00093543204
0.00016807197 1.0920057e-05 8.614806e-05 0.00029456255 3.3516994e-06 3.131834e-06 5.707461e-07 1.6107833e-06
1.981987e-06 -1.4031604e-06 7.023583e-07 1.5021008e-07 4.2111164e-06 4.396972e-06 3.8844514e-06 2.4053109e-06
8.297308e-12 5.6846927e-12 2.1583675e-12 3.2960028e-12 1.9312575e-12 -1.4686765e-12 3.6569354e-12 1.3665145e-12
9.597869e-12 1.2687086e-11 1.1239666e-11 7.933871e-12 1.0621079e-12 1.6140842e-13 -2.887933e-13 9.840508e-13
-5.199958e-14 5.793582e-13 1.4899536e-13 2.3481764e-13 1.0598246e-12 8.254932e-13 1.2366806e-12 7.6588773e-13
6.5437657e-06 3.402e-06 -5.079874e-07 2.8157015e-06 -2.1527961e-07 1.9110767e-06 1.9360923e-06 1.6614539e-06
6.528325e-06 6.1597334e-06 6.5568147e-06 5.447156e-06 7.0140295e-12 5.1025933e-12 1.4179848e-12 1.4652451e-12
2.4629352e-12 -1.5651744e-12 1.6751218e-12 1.3005987e-12 5.7383117e-12 9.441769e-12 7.8379855e-12 6.7336705e-12
-0.00059701735 0.00044930668 0.0013319579 0.0007588958 0.0013173451 0.0021427288 0.0014921976 0.00077854644
-0.00036439367 -0.0005181648 -0.00040744635 -0.00023773978 -0.0005957227 0.00045053347 0.0013310948 0.0007600916
0.0013168594 0.0021438806 0.0014919895 0.00077789195 -0.00036155782 -0.0005197291 -0.00040739917 -0.0002386307
-0.13158028 -0.076066494 0.027550057 0.08379437 0.09388552 -0.119909845 0.123961754 -0.0032853554
0.23753935 0.2004314 0.12851173 -0.10606805 6.781311e-05 0.00018910902 0.00033083622 0.00021593498
0.0003098301 0.00031764273 0.00027101592 0.00025662244 7.488159e-05 3.3316504e-05 5.1131174e-05 0.000108679335
0.00015868749 0.00054332154 0.0009765372 0.0006320505 0.0009178555 0.0009784701 0.0008188541 0.00074521627
0.00018949233 6.726932e-05 0.00012175438 0.00028849265 8.4721e-12 4.4085044e-12 -5.0892667e-13 5.434258e-12
-2.1873154e-12 2.6046125e-12 4.110706e-12 2.1993234e-12 1.0756788e-11 8.64269e-12 9.577766e-12 7.933128e-12
-8.321755e-12 -7.0250533e-12 -3.4390798e-12 -3.4593766e-13 -5.5137292e-12 4.5322817e-12 -1.6916476e-12 -1.073385e-12
-6.0623746e-12 -1.3752501e-11 -1.0311647e-11 -8.166471e-12 4.271715e-06 1.6409433e-06 5.982125e-07 -8.148178e-08
1.3314102e-06 -2.4096316e-08 1.2513656e-06 1.1953093e-06 1.8775596e-06 5.648249e-06 4.005039e-06 3.894322e-06
2.1364872e-12 -3.8325414e-13 -1.0072389e-12 3.0229218e-12 -1.1790531e-12 1.5685295e-12 9.912584e-13 2.1524803e-13
2.2188406e-12 6.3958306e-13 1.7167224e-12 1.2815793e-12 6.7738233e-12 3.4615926e-12 -5.65405e-13 4.1829105e-12
-1.6764758e-12 2.1511608e-12 3.1068791e-12 1.7633433e-12 8.3095e-12 6.7635246e-12 7.484683e-12 6.2873123e-12
-7.296099e-12 -6.41855e-12 -3.3917374e-12 -1.3282161e-13 -5.4223063e-12 4.6051934e-12 -1.4568626e-12 -7.968283e-13
-5.3654897e-12 -1.26489635e-11 -9.371791e-12 -7.147213e-12 0.00010387831 0.00066743564 0.0012651716 0.0008058237
0.0011972595 0.001368078 0.0011073513 0.00093543413 0.00016806912 1.0916056e-05 8.614884e-05 0.00029455937
3.837964e-13 -1.0723854e-13 -1.4917127e-13 4.90298e-13 -6.506677e-15 2.5434944e-13 1.3960656e-14 3.7250883e-14
2.7172633e-13 1.6370707e-13 3.8251726e-13 1.7852243e-13 6.2006502e-12 3.6335323e-12 -1.7224525e-13 2.7439682e-12
00000000: 24be 6236 cc3a 0936 1c6a b0b4 b99e 5136
00000010: 6397 b7b5 441c 1835 3644 b535 3d78 ce35
00000020: 34fd 3336 a828 7836 326c 5b36 c42b 5d36
00000030: 13d9 d938 f0f6 2e3a c7d3 a53a 473e 533a
00000040: 75ed 9c3a e250 b33a c224 913a 3538 753a
00000050: 873b 3039 0e36 3737 94a9 b438 626f 9a39
00000060: 18d9 d938 dbf6 2e3a ebd3 a53a 203e 533a
00000070: 79ed 9c3a 1651 b33a 9724 913a c837 753a
00000080: 7a3c 3039 4a35 3737 63aa b438 846f 9a39
00000090: c2ed 6036 802c 5236 6035 1935 1832 d835
000000a0: 4702 0536 3954 bcb5 b289 3c35 6f49 2134
000000b0: 374d 8d36 b489 9336 2f57 8236 ed6a 2136
000000c0: c1f7 112d 2903 c82c b1e1 172c 82ef 672c
000000d0: 71e6 072c a6b2 ceab bfaa 802c e051 c02b
000000e0: f6d8 282d 8e31 5f2d f5ba 452d fa92 0b2d
000000f0: 787a 952b cfba 352a 8093 a2aa 2b7e 8a2b
00000100: 6f2f 6aa9 2813 232b fdc0 272a ca30 842a
00000110: 3528 952b 0e5b 682b 1d0c ae2b 0794 572b
00000120: 8592 db36 ea4d 6436 a15c 08b5 62f5 3c36
00000130: 9c27 67b4 0c40 0036 d0ed 0136 1fff de35
00000140: e20d db36 b5af ce36 9c02 dc36 b7c6 b636
00000150: c3c8 f62c 1388 b32c 4990 c72b 0537 ce2b
00000160: 4c50 2d2c 5a47 dcab a0c0 eb2b 020b b72b
00000170: 1ee6 c92c f319 262d 26e3 092d 83eb ec2c
00000180: 2881 1cba ec90 eb39 1795 ae3a a3f0 463a
00000190: c4aa ac3a 066d 0c3b d895 c33a 5e17 4c3a
000001a0: 170c bfb9 73d5 07ba 869e d5b9 c949 79b9
000001b0: 462a 1cba 9435 ec39 2178 ae3a e240 473a
000001c0: 789a ac3a 5980 0c3b dc8e c33a 72eb 4b3a
000001d0: 788f bdb9 6e3e 08ba 3198 d5b9 f138 7ab9
000001e0: fbbc 06be c0c8 9bbd a8b0 e13c 629c ab3d
000001f0: 0d47 c03d 4b93 f5bd a9df fd3d 1e4f 57bb
00000200: 843d 733e e43d 4d3e 9498 033e 353a d9bd
00000210: e336 8e38 914b 4639 1674 ad39 9b6c 6239
00000220: b170 a239 4989 a639 2417 8e39 488b 8639
00000230: bf09 9d38 53bd 0b38 ae75 5638 c6ea e338
00000240: 5965 2639 b16d 0e3a 4dfe 7f3a 31b0 253a
00000250: 3d9c 703a 0240 803a 5ea8 563a 9e5a 433a
00000260: 76b2 4639 f112 8d38 6356 ff38 d440 9739
00000270: f20a 152d 471c 9b2c 0840 0fab 7233 bf2c
00000280: 2ceb 19ac 8748 372c f3a1 902c 7dc3 1a2c
00000290: 443c 3d2d 370b 182d 6c7e 282d a28f 0b2d
000002a0: da65 12ad 0e2c f7ac f400 72ac dfbe c2aa
000002b0: 42ff c1ac 2a77 9f2c 0714 eeab c510 97ab
000002c0: 044d d5ac c2ef 71ad 8867 35ad 84aa 0fad
000002d0: c155 8f36 623e dc35 da94 2035 15fb aeb3
000002e0: e8b2 b235 5cfc ceb2 98f4 a735 846e a035
000002f0: 7500 fc35 1786 bd36 0663 8636 f9ab 8236
00000300: 8857 162c bec0 d7aa 9bc1 8dab 1eb8 542c
00000310: ddef a5ab 3bc0 dc2b d981 8b2b 0559 722a
00000320: 1423 1c2c d106 342b 719b f12b c35d b42b
00000330: 2d55 ee2c 8296 732c b925 1fab 4f2c 932c
00000340: 68f1 ebab de5f 172c 8fa0 5a2c 232b f82b
00000350: a92e 122d 6af8 ed2c 04ac 032d 1337 dd2c
00000360: b55a 00ad 29d5 e1ac 1cac 6eac 398b 15aa
00000370: cbc7 beac e507 a22c 0209 cdab 8849 60ab
00000380: 09c8 bcac de85 5ead cbde 24ad 5f78 fbac
00000390: 3ed9 d938 d9f6 2e3a 1dd4 a53a ea3d 533a
000003a0: 5ded 9c3a 1551 b33a 8b24 913a ec37 753a
000003b0: b63b 3039 1b24 3737 ceaa b438 176f 9a39
000003c0: e40e d82a cf7a f1a9 b1f3 27aa b201 0a2b
000003d0: 816d eaa7 9e2f 8f2a 297e 7b28 58c3 2729
000003e0: e4f7 982a 5a51 382a 8c56 d72a 96ff 482a
000003f0: 7e2a da2c e6af 7f2c 50ee 41aa f016 412c

regularization f8 []
0.01
00000000: 7b14 ae47 e17a 843f

alpha f8 []
1.0
00000000: 0000 0000 0000 f03f
