models/mf_models1/model_file.npz (npz, 231195 bytes, 4 tensors)

user_factors f4 [3835, 8]
000000 23 aa 57 b2 32 40 d9 2f 2f a1 11 b2 83 ce 57 30
       -1.2553332e-08 3.9517684e-10 -8.47676e-09 7.8510015e-10
000010 33 da 10 32 f4 00 b3 30 b1 ba ae 32 b9 6a 07 31
       8.431516e-09 1.3024235e-09 2.0341163e-08 1.970575e-09
000020 77 20 c7 ad 38 c1 42 2d e4 3d e6 ac 4e 82 42 2b
       -2.2638098e-11 1.10705264e-11 -6.5438644e-12 6.910348e-13
000030 91 68 26 2e d2 46 d8 ad 6f 2a 3c 2e 20 2c 03 ae
       3.7836904e-11 -2.4587807e-11 4.278394e-11 -2.9825142e-11
000040 1a 56 a5 ad 66 9c 8f 2c 13 d6 74 2b 87 c3 a7 2c
       -1.8796565e-11 4.081668e-12 8.69833e-13 4.7681334e-12
000050 6a f3 2a 2d 33 13 2a ac 94 71 1a 2d e9 83 b1 ac
       9.71743e-12 -2.416911e-12 8.779106e-12 -5.0452875e-12
000060 8a cd f5 b1 3e e0 49 b0 6c 66 eb af b4 f5 75 b0
       -7.1538055e-09 -7.344204e-10 -4.2819026e-10 -8.9479646e-10
000070 fb fb ca 31 f8 a7 c8 b1 ba 67 6e 32 a8 9f f7 30
       5.9076206e-09 -5.839862e-09 1.3877008e-08 1.8016992e-09
000080 dc 4b d9 3d 0c 07 2b 3f 37 92 0f bf 54 c6 8a be
       0.10610172 0.6680763 -0.5608248 -0.27104437
000090 16 df bb 3e 63 c1 91 be 45 32 db bd ac 2a 28 3e
       0.3669364 -0.28467855 -0.107029475 0.16422528
0000a0 33 ab 97 32 5d 0b 28 b2 38 e6 47 b2 05 c5 46 b2
       1.7656566e-08 -9.781471e-09 -1.163567e-08 -1.1569914e-08
0000b0 7f 1d 95 b0 f6 10 02 32 af d8 f8 31 ea bb 8b 32
       -1.084956e-09 7.570852e-09 7.242384e-09 1.6267183e-08
0000c0 6a 34 07 32 28 89 d3 b0 ac 3c 8b b2 55 ba c3 b1
       7.869952e-09 -1.5391253e-09 -1.620932e-08 -5.6964304e-09
0000d0 4a b2 e1 31 04 6b c2 30 76 72 94 31 a7 64 7d 32
       6.568631e-09 1.4145773e-09 4.3203796e-09 1.4749424e-08
0000e0 b7 57 ec bd 98 b6 50 be c5 3c ba 3e e7 18 ae 3e
       -0.11540168 -0.20382154 0.36374488 0.34003374
0000f0 b3 e8 bb be 92 f6 f2 be ed 7f 09 3f 03 dd 0c bd
       -0.36700973 -0.47453743 0.53710824 -0.03439046
000100 e4 59 d0 ba 05 f2 5f 39 e9 d6 66 39 6d 17 f5 b9
       -0.001589593 0.00021357097 0.0002201457 -0.00046747495
000110 be 63 99 3a 07 24 8a 3a bf 4f 8c b9 b2 9c f3 b9
       0.0011702699 0.0010539301 -0.00026762296 -0.0004646532
000120 67 19 23 3e cc c6 76 3e 3f 44 ab 3e e3 af 80 3e
       0.15927659 0.24099272 0.33450505 0.2513419
000130 85 64 10 3e e3 2f ca 3d 8a aa 16 be 85 98 24 3d
       0.14100845 0.09872415 -0.14713493 0.040184516
000140 45 0e 84 ae de af 17 ad 5a 57 25 ae 1c e7 19 ad
       -6.0052e-11 -8.622407e-12 -3.759424e-11 -8.74836e-12
000150 08 3a eb 2d 6e 3e 2b 2c 9d 53 cd 2e cd 92 08 2d
       2.6742178e-11 2.4335217e-12 9.3371734e-11 7.763301e-12
000160 ca 1f 80 ae b4 22 af 2c 71 ac c5 ad 97 fb c5 2c
       -5.826413e-11 4.977652e-12 -2.2472886e-11 5.627009e-12
000170 3f 1d 1b 2e 16 e7 c2 2a 21 83 91 2e 96 5e 8d 2c
       3.5268895e-11 3.462167e-13 6.61713e-11 4.017962e-12
000180 cd c8 22 3e 69 3d 77 3e e7 65 ac 3e 54 82 81 3e
       0.15896912 0.2414452 0.33671495 0.25294745
000190 06 0c 10 3e af 52 c9 3d 50 65 19 be e2 d3 1d 3d
       0.14067087 0.09830224 -0.14980054 0.038532145
0001a0 4f 0c 33 be 02 8e 2d 3e d6 b1 be 3e 0a b0 fd be
       -0.17485164 0.16948703 0.37245053 -0.4954837
0001b0 43 09 de 3c ce f2 9b bd 18 2c 81 3e b9 63 94 3a
       0.027104026 -0.07614671 0.25228953 0.0011321224
0001c0 f4 07 8b 32 73 1d 6a b1 aa d0 76 b2 72 89 95 b1
       1.6185346e-08 -3.4068222e-09 -1.4366529e-08 -4.3520965e-09
0001d0 23 78 05 b2 65 6d 55 31 c0 68 69 32 4a a0 49 32
       -7.768935e-09 3.1057763e-09 1.3586202e-08 1.1736185e-08
0001e0 4a 81 73 32 c5 34 68 b1 21 6a 00 b2 6d c8 e1 b1
       1.41738585e-08 -3.379044e-09 -7.4747115e-09 -6.5711476e-09
0001f0 59 3e ad b1 94 bb 7a 31 87 f8 93 31 83 b4 11 32
       -5.0420508e-09 3.6486414e-09 4.3065174e-09 8.4811544e-09
000200 5d 95 b9 be 9b 86 50 3e c7 ad 4f bd e4 2f 00 bf
       -0.36246768 0.20363848 -0.050702836 -0.50073075
000210 28 63 37 bc 6d 0f 11 3e 29 d8 ca 3e d2 cd 12 3f
       -0.011193074 0.1416604 0.39618042 0.57345307
000220 af db e4 2d f1 be 86 ad ad a6 1e ad bc d1 44 ad
       2.6018158e-11 -1.5318831e-11 -9.01827e-12 -1.11878805e-11
000230 0c 11 01 ae b9 6a ba 2d fc 2c b2 2b 86 72 07 2e
       -2.9346345e-11 2.1193146e-11 1.2660146e-12 3.0797163e-11
000240 c8 67 59 b2 e9 61 b3 b1 3f 68 b4 b1 18 6e f3 b0
       -1.26546595e-08 -5.2207167e-09 -5.250541e-09 -1.7711868e-09
000250 b3 26 19 32 11 27 c3 31 3b fa db 32 f1 25 fa af
       8.914571e-09 5.6796883e-09 2.5608747e-08 -4.5501694e-10
000260 dd 07 53 31 d1 4d 83 b0 d2 00 3e 32 d3 30 60 b0
       3.070901e-09 -9.553621e-10 1.1059642e-08 -8.156011e-10
000270 a2 10 28 b2 b4 5c 04 31 48 a0 46 b0 25 70 18 b2
       -9.782669e-09 1.9261224e-09 -7.2259754e-10 -8.873063e-09
000280 c3 c8 22 3e 6f 3d 77 3e e1 65 ac 3e 59 82 81 3e
       0.15896897 0.24144529 0.33671477 0.2529476
000290 0c 0c 10 3e be 52 c9 3d 52 65 19 be e4 d3 1d 3d
       0.14067096 0.09830235 -0.14980057 0.038532153
0002a0 a5 53 35 ae f6 a5 79 2d b0 28 56 ad a6 37 76 2c
       -4.1228927e-11 1.4190862e-11 -1.2173526e-11 3.4989594e-12
0002b0 2a 27 74 2e 39 5f 0f ae 42 fe 97 2e 13 a5 31 ae
       5.551396e-11 -3.259901e-11 6.91185e-11 -4.0391756e-11
0002c0 12 7b 9c 32 1f 7f 64 b2 22 cb 4f b1 50 8f 12 b2
       1.8216756e-08 -1.3300251e-08 -3.0237932e-09 -8.530904e-09
0002d0 a9 68 e9 b1 51 ea 95 31 fa 98 76 32 fa 5c 07 32
       -6.793091e-09 4.3631094e-09 1.4353867e-08 7.879175e-09
0002e0 50 be 73 3f 39 cb 1e be e4 5d c6 be 69 9a 71 be
       0.9521227 -0.15507211 -0.38743508 -0.23594059
0002f0 7b 26 d5 be 90 50 82 3e de 1b 9f be 28 10 f2 3e
       -0.4163092 0.2545209 -0.31075948 0.4727795
000300 fe 7e 21 3e 90 5d 76 3e bc 8d ad 3e ff 2d 82 3e
       0.157711 0.24059129 0.33897197 0.25425717
000310 8b 81 0f 3e 26 29 ca 3d 3b c9 1c be 23 ea 17 3d
       0.1401426 0.0987113 -0.15311138 0.037088525
000320 3c 13 23 3e 0d 97 76 3e 37 02 ab 3e 28 7f 80 3e
       0.15925306 0.24081059 0.33400127 0.25097013
000330 e7 61 10 3e 73 3b ca 3d a3 29 16 be bb 99 25 3d
       0.14099847 0.0987462 -0.1466432 0.040429812
000340 02 95 99 32 ac 40 01 b2 8d d9 81 b2 85 e7 e7 b1
       1.7879305e-08 -7.523493e-09 -1.5116507e-08 -6.7493056e-09
000350 12 9d dc b1 d2 94 95 31 dc 7c a1 32 d1 5b 6b 32
       -6.4206995e-09 4.3533896e-09 1.8799646e-08 1.3699677e-08
000360 6f 7f 5e b2 56 d3 62 31 2c fa 38 b2 2b 55 a6 31
       -1.2951076e-08 3.300746e-09 -1.0767092e-08 4.8409183e-09
000370 cf 75 f0 31 eb d7 09 b1 56 e4 6f 32 a0 40 cb 31
       6.9983126e-09 -2.005886e-09 1.39635485e-08 5.9154246e-09
000380 5a 2f 45 2e 88 2f 7c ad ae 44 99 ad a1 ce b2 ad
       4.483467e-11 -1.4335096e-11 -1.7424586e-11 -2.0328019e-11
000390 93 9b c0 ad 63 ab 33 2d 36 8c a3 2d a0 3b de 2d
       -2.1896962e-11 1.02130275e-11 1.859322e-11 2.5264957e-11
0003a0 3b 19 89 b2 ac 77 7d 30 80 1f 32 b2 23 68 62 30
       -1.5960373e-08 9.221093e-10 -1.0368126e-08 8.236631e-10
0003b0 72 ae 48 32 40 f6 ad 30 fc 27 b9 32 0f 10 7c 31
       1.16811965e-08 1.2657395e-09 2.1555017e-08 3.6679955e-09
0003c0 40 83 c2 ae cf 79 d1 ab 8f db 55 ae ca 7e 03 ac
       -8.845413e-11 -1.4884152e-12 -4.86256e-11 -1.8686602e-12
0003d0 c2 8e 4c 2e 6c 4c 63 ac 0f 84 e2 2e cc 6e 12 2d
       4.6511024e-11 -3.2301063e-12 1.03007484e-10 8.323741e-12
0003e0 ce c8 22 3e 6a 3d 77 3e e2 65 ac 3e 56 82 81 3e
       0.15896913 0.24144521 0.3367148 0.2529475
0003f0 08 0c 10 3e ba 52 c9 3d 54 65 19 be cb d3 1d 3d
       0.1406709 0.09830232 -0.1498006 0.03853206

item_factors f4 [3292, 8]
000000 af 6b 8e b0 2f 52 0c 30 3e 29 0d af cc f3 37 30
       -1.0362465e-09 5.1048493e-10 -1.2838527e-10 6.692147e-10
000010 ca 0a ba 30 5d 3c fa 2f c4 33 23 31 e2 e1 33 30
       1.3536348e-09 4.5517626e-10 2.3749047e-09 6.544082e-10
000020 7e c4 01 3b c6 45 19 3b de 8b 37 3b 12 79 24 3b
       0.0019800956 0.0023387535 0.0028006951 0.0025096578
000030 ad 00 01 3b d8 b2 e8 3a a0 5d 66 3a 22 56 bf 3a
       0.001968424 0.0017753495 0.0008787755 0.0014597813
000040 98 c4 01 3b ae 45 19 3b b9 8b 37 3b 33 79 24 3b
       0.0019801017 0.002338748 0.0028006865 0.0025096654
000050 fa 00 01 3b 8c b2 e8 3a fd 5d 66 3a 20 56 bf 3a
       0.001968442 0.0017753406 0.0008787809 0.0014597811
000060 1a eb 76 b0 56 bc 12 30 c0 16 7a af bb 0d 0e 30
       -8.982838e-10 5.338213e-10 -2.274545e-10 5.167881e-10
000070 1a 2a bb 30 53 a7 f3 2f 3f c8 0d 31 81 01 28 30
       1.3618007e-09 4.4320334e-10 2.0632027e-09 6.112018e-10
000080 e6 92 33 2d 6a 62 99 ab 54 b1 ae ab 08 2e 02 ac
       1.020759e-11 -1.0898619e-12 -1.2412662e-12 -1.8499664e-12
000090 2f 74 fa ab 78 34 97 2c 6f 24 dd 2c 48 b3 e2 2c
       -1.7795816e-12 4.2975033e-12 6.2852427e-12 6.4432105e-12
0000a0 e0 65 38 2b d3 69 f2 a7 66 df b0 a9 51 b7 ec a9
       6.551131e-13 -6.7283228e-15 -7.8547235e-14 -1.0512306e-13
0000b0 e0 10 8b 29 2d f8 3d 2a 3b 5c f1 2a c4 e0 8e 2a
       6.1757674e-14 1.6872675e-13 4.2874198e-13 2.538023e-13
0000c0 17 1e 23 b0 a5 93 c4 ae c6 dd ca 2e 92 ab 07 30
       -5.9341815e-10 -8.939275e-11 9.2252914e-11 4.935653e-10
0000d0 50 25 3f 30 86 02 d1 2f fc a6 9e 30 c2 e1 1d af
       6.953842e-10 3.8018672e-10 1.1543473e-09 -1.4359272e-10
0000e0 e7 90 5f ac 25 7c 0f 2c b8 e0 c8 aa 77 fb 1f 2c
       -3.1770643e-12 2.0390436e-12 -3.5683067e-13 2.273485e-12
0000f0 bc 61 bc 2c ec 1f 4d 2c 23 e7 45 2d b5 63 5b 2c
       5.354132e-12 2.9149972e-12 1.1249476e-11 3.117712e-12
000100 c7 8e 1a 3b bb df 3a 3b c9 69 6a 3b f2 c4 4f 3b
       0.0023583637 0.0028514701 0.003576862 0.0031703082
000110 d5 73 18 3b 88 1e 09 3b b3 a1 52 3a 2d 63 d1 3a
       0.00232624 0.002092274 0.00080349593 0.0015974991
000120 da 8e 1a 3b cd df 3a 3b aa 69 6a 3b eb c4 4f 3b
       0.0023583681 0.0028514743 0.0035768547 0.0031703066
000130 ef 73 18 3b 49 1e 09 3b ef a0 52 3a 5a 63 d1 3a
       0.0023262461 0.0020922592 0.0008034845 0.0015975044
000140 06 f0 80 3e 50 7b 14 be 31 08 18 3e db 36 9b bd
       0.25183123 -0.14500165 0.14846875 -0.07578822
000150 ea 13 50 be 7c 48 d7 3c 59 12 a6 3d af ae 55 3d
       -0.20320097 0.02627968 0.08108968 0.052168544
000160 73 e2 04 3a c3 43 1b 3a b6 ce 35 3a ad c5 23 3a
       0.0005069144 0.0005922878 0.00069354044 0.00062474125
000170 4d 93 04 3a 55 6a ef 39 5d 5e 82 39 68 27 cb 39
       0.000505735 0.00045664856 0.00024865838 0.00038748537
000180 58 6b c5 3a 03 a2 e7 3a 8c cd 08 3b bb f6 f5 3a
       0.0015061898 0.0017672185 0.0020874469 0.0018765548
000190 41 b0 c4 3a 92 85 b1 3a 07 99 3a 3a 1e d9 94 3a
       0.0015006141 0.0013543835 0.000711814 0.001135621
0001a0 99 95 ee ac b5 c1 55 2c 43 23 79 a9 ad 04 7a 2c
       -6.7809755e-12 3.037665e-12 -5.531969e-14 3.5529732e-12
0001b0 04 8a 04 2d 67 30 41 2c f0 ce 65 2d d2 35 2b 2c
       7.533977e-12 2.7453818e-12 1.3063092e-11 2.4330438e-12
0001c0 23 fc 42 2d 7f 45 a7 ab c2 ed fb ab 8a 5e 17 ac
       1.1083609e-11 -1.1885353e-12 -1.7900614e-12 -2.151087e-12
0001d0 d0 49 18 ac 2e b5 8c 2c f9 b7 b0 2c 1f e4 ee 2c
       -2.1641473e-12 3.9991543e-12 5.022646e-12 6.7896934e-12
0001e0 e0 37 6d 30 22 6c 0f 30 a8 7b 99 b0 4a d9 f9 2f
       8.62995e-10 5.2176763e-10 -1.116736e-09 4.544723e-10
0001f0 2c 27 ad 30 8b cc 11 30 ac 0b 16 31 e9 55 09 31
       1.259854e-09 5.3041366e-10 2.1834508e-09 1.9984958e-09
000200 99 72 40 2c c6 77 8d a9 46 91 1b 29 32 51 9c ab
       2.7348456e-12 -6.282435e-14 3.454292e-14 -1.1107003e-12
000210 0d 9b 2f ab fd 44 ae 2a 3c 02 18 2b 5e 2b 68 2b
       -6.2387666e-13 3.095648e-13 5.400435e-13 8.248314e-13
000220 41 4d 92 ac 49 e7 29 2c 50 ee 29 ab e5 42 39 2c
       -4.1581465e-12 2.4144734e-12 -6.0371586e-13 2.6327215e-12
000230 62 c5 d6 2c 41 3e 3e 2c 58 6f 48 2d 66 2f 5a 2c
       6.1041597e-12 2.7035182e-12 1.1393407e-11 3.1005975e-12
000240 25 59 c8 ac a5 e7 39 2c 70 e0 52 29 20 4c 5b 2c
       -5.694239e-12 2.641867e-12 4.6824036e-14 3.116403e-12
000250 b1 70 e8 2c 52 54 38 2c 2c d2 50 2d d6 4c 22 2c
       6.606348e-12 2.619478e-12 1.1870099e-11 2.3064237e-12
000260 97 c4 01 3b c0 45 19 3b bf 8b 37 3b 3b 79 24 3b
       0.0019801015 0.0023387522 0.002800688 0.0025096673
000270 b3 00 01 3b 2a b3 e8 3a 8d 5e 66 3a 3a 56 bf 3a
       0.0019684255 0.001775359 0.0008787893 0.0014597841
000280 ee b5 a5 2b 80 98 c7 29 89 2c 3c aa 9d 16 3e aa
       1.1774451e-12 8.86383e-14 -1.6713206e-13 -1.6883236e-13
000290 6b 76 e3 2a 33 67 dd 29 58 47 8f 2b e2 c9 69 2a
       4.040547e-13 9.832274e-14 1.0180563e-12 2.07646e-13
0002a0 55 a7 13 2d 04 1b 9c ab 68 c8 6b ab a8 ee f2 ab
       8.393138e-12 -1.1091965e-12 -8.376689e-13 -1.7261375e-12
0002b0 8e 2d 18 ac 00 95 4c 2c f3 7b 60 2c 33 8a 9f 2c
       -2.1625787e-12 2.9072855e-12 3.190112e-12 4.534395e-12
0002c0 5e 6b c5 3a c3 a1 e7 3a b0 cd 08 3b 91 f6 f5 3a
       0.0015061905 0.001767211 0.0020874552 0.0018765499
0002d0 69 b0 c4 3a 6c 85 b1 3a 03 99 3a 3a e6 d8 94 3a
       0.0015006188 0.0013543791 0.00071181374 0.0011356145
0002e0 e7 8f aa b0 1e 46 20 2f 24 4a b7 2f fc 0a 8d 2f
       -1.2410027e-09 1.4576826e-10 3.3340186e-10 2.5655555e-10
0002f0 72 b2 cf 30 09 13 35 30 51 22 16 31 4d 5e 33 30
       1.511195e-09 6.5874467e-10 2.184738e-09 6.525383e-10
000300 34 c8 b9 2b 23 a7 2b 2a 84 57 0b aa 32 3f 32 aa
       1.3200608e-12 1.5245838e-13 -1.2376043e-13 -1.5831501e-13
000310 1b 01 08 2b 14 ec 15 2a 3e c3 9f 2b 39 87 90 2a
       4.831844e-13 1.3315765e-13 1.135182e-12 2.5673368e-13
000320 9c 07 25 ad 6c 21 63 2c 88 fb 3c 2b 13 a4 8c 2c
       -9.380854e-12 3.2277193e-12 6.7140087e-13 3.9972552e-12
000330 5a c5 07 2d 4e 51 0a 2c fd 68 55 2d a8 00 11 2b
       7.717682e-12 1.9656113e-12 1.213096e-11 5.151526e-13
000340 7f e2 04 3a cd 43 1b 3a a2 ce 35 3a bf c5 23 3a
       0.0005069151 0.0005922884 0.0006935393 0.0006247423
000350 57 93 04 3a ae 6a ef 39 e2 5e 82 39 9a 27 cb 39
       0.0005057356 0.00045665115 0.00024866225 0.00038748683
000360 de 24 dd 29 24 6b a7 2a eb d8 31 29 35 06 32 2a
       9.820767e-14 2.9739503e-13 3.949004e-14 1.581173e-13
000370 14 b8 3b 2b 1a 4f de 28 16 d8 87 2b 5f 69 93 28
       6.6691206e-13 2.4681256e-14 9.652303e-13 1.6365976e-14
000380 5c 28 a6 b0 79 0e 68 b0 0b bc 8a 30 6f 96 14 af
       -1.208956e-09 -8.4421675e-10 1.0094267e-09 -1.3513966e-10
000390 8b 27 e4 30 92 89 d4 30 61 4a 22 31 ae e3 a6 30
       1.6600422e-09 1.546413e-09 2.3616382e-09 1.21428e-09
0003a0 af 4a 08 ad 74 de 52 2c a6 a1 2e 29 38 f5 7d 2c
       -7.747288e-12 2.9966281e-12 3.877597e-14 3.6089586e-12
0003b0 9e 76 04 2d 2c e4 1b 2c c5 b4 55 2d 50 67 eb 2b
       7.52967e-12 2.2153486e-12 1.2147787e-11 1.6726429e-12
0003c0 c5 05 27 31 57 bc 85 b0 52 72 a7 ae 7b c2 24 b0
       2.4304978e-09 -9.730553e-10 -7.614588e-11 -5.9939226e-10
0003d0 fa a2 99 2e d7 88 c7 30 e4 d5 ac 30 fa 54 ac 30
       6.986585e-11 1.4518048e-09 1.2575438e-09 1.2538799e-09
0003e0 6c a9 3f bd c2 e7 98 bd d9 c6 ab 3d ba 96 cc 3d
       -0.046792433 -0.07466079 0.083875366 0.09989686
0003f0 4b 6a c6 bd fa 94 8a bc f0 4f b8 3d ca 9b b9 3c
       -0.096882425 -0.01691674 0.08999622 0.022657294

regularization f8 []
000000 7b 14 ae 47 e1 7a 84 3f
       0.01

alpha f8 []
000000 00 00 00 00 00 00 f0 3f
       1.0
